…
INFO:__main__:Starting LSTM model training...
INFO:__main__:Loaded features: (1372, 23)
INFO:__main__:Loaded labels: (1372, 8)
INFO:__main__:Created 49 sequences of shape (49, 28, 21)
INFO:__main__:Targets shape: (49, 3)
INFO:__main__:Train: 40 sequences from 40) patients
INFO:__main__:Test: 9 sequences from 9 patients
Model: "sequential"
┏━━━━━━━━━━━━━━━━━━━━━━━━━━━━━━━━━┳━━━━━━━━━━━━━━━━━━━━━━━━┳━━━━━━━━━━━━━━━┓
┃ Layer (type)                    ┃ Output Shape           ┃       Param # ┃
┡━━━━━━━━━━━━━━━━━━━━━━━━━━━━━━━━━╇━━━━━━━━━━━━━━━━━━━━━━━━╇━━━━━━━━━━━━━━━┩
│ bidirectional (Bidirectional)   │ (None, 28, 64)         │        13,824 │
├─────────────────────────────────┼────────────────────────┼───────────────┤
│ dropout (Dropout)               │ (None, 28, 64)         │             0 │
├─────────────────────────────────┼────────────────────────┼───────────────┤
│ bidirectional_1 (Bidirectional) │ (None, 32)             │        10,368 │
├─────────────────────────────────┼────────────────────────┼───────────────┤
│ dropout_1 (Dropout)             │ (None, 32)             │             0 │
├─────────────────────────────────┼────────────────────────┼───────────────┤
│ dense (Dense)                   │ (None, 16)             │           528 │
├─────────────────────────────────┼────────────────────────┼───────────────┤
│ dropout_2 (Dropout)             │ (None, 16)             │             0 │
├─────────────────────────────────┼────────────────────────┼───────────────┤
│ dense_1 (Dense)                 │ (None, 8)              │           136 │
├─────────────────────────────────┼────────────────────────┼───────────────┤
│ dense_2 (Dense)                 │ (None, 3)              │            27 │
└─────────────────────────────────┴────────────────────────┴───────────────┘
 Total params: 24,883 (97.20 KB)
 Trainable params: 24,883 (97.20 KB)
 Non-trainable params: 0 (0.00 B)
INFO:__main__:Model structure:
None
Epoch 1/50
[1m1/4[0m [32m━━━━━[0m[37m━━━━━━━━━━━━━━━[0m [1m5s[0m 2s/step - loss: 1.6220 - mae: 1.0123[1m4/4[0m [32m━━━━━━━━━━━━━━━━━━━━[0m[37m[0m [1m2s[0m 84ms/step - loss: 1.2084 - mae: 0.8480 - val_loss: 0.5660 - val_mae: 0.6334
…
